…
[INFO] Curriculum Manager:  <CurriculumManager> contains 0 active terms.
+----------------------+
| Active Curriculum Terms |
+-----------+----------+
|   Index   | Name     |
+-----------+----------+
+-----------+----------+

[INFO]: Completed setting up the environment...
--------------------------------------------------------------------------------
Resolved observation sets: 
	 actor :  ['policy']
	 critic :  ['policy']
--------------------------------------------------------------------------------
Actor Model: LongHistActor(
  (obs_normalizer): Identity()
  (distribution): GaussianDistribution()
  (mlp): _LongHistEncoder(
    (cnn): Sequential(
      (0): Conv2d(3, 16, kernel_size=(3, 3), stride=(2, 2), padding=(1, 1))
      (1): ELU(alpha=1.0)
      (2): Conv2d(16, 32, kernel_size=(3, 3), stride=(2, 2), padding=(1, 1))
      (3): ELU(alpha=1.0)
      (4): Flatten(start_dim=1, end_dim=-1)
      (5): Linear(in_features=512, out_features=64, bias=True)
      (6): ELU(alpha=1.0)
    )
    (proprio_mlp): Sequential(
      (0): Linear(in_features=554, out_features=256, bias=True)
      (1): ELU(alpha=1.0)
      (2): Linear(in_features=256, out_features=64, bias=True)
      (3): ELU(alpha=1.0)
    )
    (head): Sequential(
      (0): Linear(in_features=128, out_features=128, bias=True)
      (1): ELU(alpha=1.0)
      (2): Linear(in_features=128, out_features=2, bias=True)
    )
  )
)
Critic Model: LongHistCritic(
  (obs_normalizer): Identity()
  (mlp): _LongHistEncoder(
    (cnn): Sequential(
      (0): Conv2d(3, 16, kernel_size=(3, 3), stride=(2, 2), padding=(1, 1))
      (1): ELU(alpha=1.0)
      (2): Conv2d(16, 32, kernel_size=(3, 3), stride=(2, 2), padding=(1, 1))
      (3): ELU(alpha=1.0)
      (4): Flatten(start_dim=1, end_dim=-1)
      (5): Linear(in_features=512, out_features=64, bias=True)
      (6): ELU(alpha=1.0)
    )
    (proprio_mlp): Sequential(
      (0): Linear(in_features=554, out_features=256, bias=True)
      (1): ELU(alpha=1.0)
      (2): Linear(in_features=256, out_features=64, bias=True)
      (3): ELU(alpha=1.0)
    )
    (head): Sequential(
      (0): Linear(in_features=128, out_features=128, bias=True)
      (1): ELU(alpha=1.0)
      (2): Linear(in_features=128, out_features=1, bias=True)
    )
  )
)

mode: RL (model_399.pt)
  episode_length_s = 30.0, num_envs = 256, steps = 1500
  reached:   94.7%   95% CI [93.7%, 95.5%]   (2293/2422)
  crashed:    5.2%   95% CI [4.3%, 6.1%]   (125/2422)
  timeout:    0.2%   95% CI [0.1%, 0.4%]   (4/2422)
  mean steps to reach: 738.3   (14.77 sec)

  saved to overnight_results/rl_archD_sparse_s0.json
7810   MB | 8086      | 0          |
…
