…
[INFO] Curriculum Manager:  <CurriculumManager> contains 0 active terms.
+----------------------+
| Active Curriculum Terms |
+-----------+----------+
|   Index   | Name     |
+-----------+----------+
+-----------+----------+

[INFO]: Completed setting up the environment...
--------------------------------------------------------------------------------
Resolved observation sets: 
	 actor :  ['policy']
	 critic :  ['policy']
--------------------------------------------------------------------------------
Actor Model: LongHistActor(
  (obs_normalizer): Identity()
  (distribution): GaussianDistribution()
  (mlp): _LongHistEncoder(
    (cnn): Sequential(
      (0): Conv2d(3, 16, kernel_size=(3, 3), stride=(2, 2), padding=(1, 1))
      (1): ELU(alpha=1.0)
      (2): Conv2d(16, 32, kernel_size=(3, 3), stride=(2, 2), padding=(1, 1))
      (3): ELU(alpha=1.0)
      (4): Flatten(start_dim=1, end_dim=-1)
      (5): Linear(in_features=512, out_features=64, bias=True)
      (6): ELU(alpha=1.0)
    )
    (proprio_mlp): Sequential(
      (0): Linear(in_features=554, out_features=256, bias=True)
      (1): ELU(alpha=1.0)
      (2): Linear(in_features=256, out_features=64, bias=True)
      (3): ELU(alpha=1.0)
    )
    (head): Sequential(
      (0): Linear(in_features=128, out_features=128, bias=True)
      (1): ELU(alpha=1.0)
      (2): Linear(in_features=128, out_features=2, bias=True)
    )
  )
)
Critic Model: LongHistCritic(
  (obs_normalizer): Identity()
  (mlp): _LongHistEncoder(
    (cnn): Sequential(
      (0): Conv2d(3, 16, kernel_size=(3, 3), stride=(2, 2), padding=(1, 1))
      (1): ELU(alpha=1.0)
      (2): Conv2d(16, 32, kernel_size=(3, 3), stride=(2, 2), padding=(1, 1))
      (3): ELU(alpha=1.0)
      (4): Flatten(start_dim=1, end_dim=-1)
      (5): Linear(in_features=512, out_features=64, bias=True)
      (6): ELU(alpha=1.0)
    )
    (proprio_mlp): Sequential(
      (0): Linear(in_features=554, out_features=256, bias=True)
      (1): ELU(alpha=1.0)
      (2): Linear(in_features=256, out_features=64, bias=True)
      (3): ELU(alpha=1.0)
    )
    (head): Sequential(
      (0): Linear(in_features=128, out_features=128, bias=True)
      (1): ELU(alpha=1.0)
      (2): Linear(in_features=128, out_features=1, bias=True)
    )
  )
)
Could not find git repository in /home/chrisliang/miniconda3/envs/isaaclab/lib/python3.11/site-packages/rsl_rl/__init__.py. Skipping.
Storing git diff for 'IsaacLab' in: /home/chrisliang/Desktop/ffs/logs/rsl_rl/cbf_goal_go2_archD/2026-05-27_04-58-29/git/IsaacLab.diff
################################################################################
…
