…
+----------------------+
| Active Curriculum Terms |
+-----------+----------+
|   Index   | Name     |
+-----------+----------+
+-----------+----------+

[INFO]: Completed setting up the environment...
--------------------------------------------------------------------------------
Resolved observation sets: 
	 actor :  ['policy', 'priv']
	 critic :  ['policy', 'priv']
--------------------------------------------------------------------------------
Actor Model: TeacherActor(
  (obs_normalizer): Identity()
  (distribution): GaussianDistribution()
  (mlp): _TeacherEncoder(
    (cnn): Sequential(
      (0): Conv2d(3, 16, kernel_size=(3, 3), stride=(2, 2), padding=(1, 1))
      (1): ELU(alpha=1.0)
      (2): Conv2d(16, 32, kernel_size=(3, 3), stride=(2, 2), padding=(1, 1))
      (3): ELU(alpha=1.0)
      (4): Flatten(start_dim=1, end_dim=-1)
      (5): Linear(in_features=512, out_features=64, bias=True)
      (6): ELU(alpha=1.0)
    )
    (proprio_mlp): Sequential(
      (0): Linear(in_features=15, out_features=64, bias=True)
      (1): ELU(alpha=1.0)
    )
    (priv_encoder): Sequential(
      (0): Linear(in_features=4, out_features=32, bias=True)
      (1): ELU(alpha=1.0)
      (2): Linear(in_features=32, out_features=16, bias=True)
      (3): ELU(alpha=1.0)
    )
    (head): Sequential(
      (0): Linear(in_features=144, out_features=128, bias=True)
      (1): ELU(alpha=1.0)
      (2): Linear(in_features=128, out_features=2, bias=True)
    )
  )
)
Critic Model: TeacherCritic(
  (obs_normalizer): Identity()
  (mlp): _TeacherEncoder(
    (cnn): Sequential(
      (0): Conv2d(3, 16, kernel_size=(3, 3), stride=(2, 2), padding=(1, 1))
      (1): ELU(alpha=1.0)
      (2): Conv2d(16, 32, kernel_size=(3, 3), stride=(2, 2), padding=(1, 1))
      (3): ELU(alpha=1.0)
      (4): Flatten(start_dim=1, end_dim=-1)
      (5): Linear(in_features=512, out_features=64, bias=True)
      (6): ELU(alpha=1.0)
    )
    (proprio_mlp): Sequential(
      (0): Linear(in_features=15, out_features=64, bias=True)
      (1): ELU(alpha=1.0)
    )
    (priv_encoder): Sequential(
      (0): Linear(in_features=4, out_features=32, bias=True)
      (1): ELU(alpha=1.0)
      (2): Linear(in_features=32, out_features=16, bias=True)
      (3): ELU(alpha=1.0)
    )
    (head): Sequential(
      (0): Linear(in_features=144, out_features=128, bias=True)
      (1): ELU(alpha=1.0)
      (2): Linear(in_features=128, out_features=1, bias=True)
    )
  )
)
Could not find git repository in /home/chrisliang/miniconda3/envs/isaaclab/lib/python3.11/site-packages/rsl_rl/__init__.py. Skipping.
Storing git diff for 'IsaacLab' in: /home/chrisliang/Desktop/ffs/logs/rsl_rl/cbf_goal_go2_archA/2026-05-27_04-16-27/git/IsaacLab.diff
################################################################################
…
